sudoku_/mode.pth (torch_old, 241814 bytes, 10 tensors)

conv1.weight f4 [6, 1, 3, 3]
000000 d7 d2 c4 3e 65 a2 c1 3e cc b4 7d be ea b4 3f 3e
       0.38442108 0.3781921 -0.24776 0.18721357
000010 64 76 40 bd 76 c6 cf bd cc bf 62 be cc 7d 31 3e
       -0.046987906 -0.10145275 -0.22143477 0.17333144
000020 a7 59 94 3e ef 85 af be 2f f8 88 3e e8 89 93 3e
       0.2897465 -0.3428187 0.2675185 0.28816152
000030 fc 33 52 3e 94 9b 7d 3e d5 a7 99 3e ea 3b 80 3d
       0.20527643 0.2476638 0.30010858 0.06261428
000040 02 39 b2 3e 77 1e 48 bd 0b 0e 8e 3e 06 4f f0 3c
       0.34809119 -0.04885718 0.2774509 0.029334556
000050 e6 e9 3b bf d2 74 71 be a5 35 6d bf 42 77 01 3e
       -0.73403776 -0.2357972 -0.9265998 0.1264315
000060 ca 02 2b bf 90 55 1c 3e 9a 0a 94 3e 85 07 64 bd
       -0.6680113 0.15267015 0.28914338 -0.055671234
000070 04 d8 91 be a2 e3 5e bf 6e 12 8b 3e 89 88 8b be
       -0.2848512 -0.8706609 0.27162498 -0.27252606
000080 fb d2 49 3e 36 e7 99 3e 7d db 8a 3e 90 fe eb 3e
       0.19709389 0.30059212 0.2712058 0.46092653
000090 e6 d6 be bd 46 4a a1 3e 8d 3c 3f 3d 04 31 d0 be
       -0.093183324 0.3150198 0.046688605 -0.40662396
0000a0 2c 54 56 3e 66 f7 01 be 4a dc b7 ba 81 1f a1 3e
       0.20930547 -0.12692031 -0.0014027443 0.31469348
0000b0 bb 59 9d bc d8 c8 27 3e 72 f7 f9 3e 74 0d ba 3e
       -0.019207826 0.1638521 0.48821598 0.3633839
0000c0 e0 cf 82 3e fe ae 43 bd 04 fb 7d be 36 da 00 bf
       0.2554922 -0.047774307 -0.24802786 -0.50332963
0000d0 37 71 1d bf 9c e9 fd 3d
       -0.6150088 0.12398073

conv1.bias f4 [6]
000000 ad a5 33 bd 52 e0 43 be 00 0f 58 3e 93 e6 06 bd
       -0.043859173 -0.1912854 0.21099472 -0.032934736
000010 60 f6 f4 bd 33 a3 b5 bd
       -0.11961055 -0.088690184

conv2.weight f4 [16, 6, 3, 3]
000000 92 1e f7 3d af eb 18 3e 6f 3f 0a 3e 9c a2 9a 3d
       0.12066378 0.14933656 0.1350076 0.075505465
000010 5d f2 9f 3b de b8 76 be 7a 91 26 3d 7c b7 af be
       0.004881187 -0.24093959 0.04066608 -0.34319675
000020 4d 1a 12 bf 60 61 8e 3e 0a e0 b2 3e bc de 9f bd
       -0.5707138 0.27808666 0.34936553 -0.07806155
000030 eb a1 d2 3d 40 ba af be 1a 89 a8 be a6 7e 53 be
       0.1028479 -0.34321785 -0.329171 -0.20653781
000040 e4 c0 3a be c4 d3 0c be 6c 4f 23 be 47 1b d4 bd
       -0.18237644 -0.13752657 -0.15948266 -0.10356765
000050 5c 09 48 bd 41 50 27 bd f8 96 86 3d 54 eb ac bd
       -0.04883705 -0.04084802 0.06571764 -0.08443323
000060 e5 e9 dc bd 62 44 71 be 72 24 e7 bd 1c 20 79 bd
       -0.10786799 -0.23561242 -0.11286248 -0.060821638
000070 39 a2 8e be b3 23 8a bd 65 dd 21 be 76 3a cc be
       -0.2785814 -0.0674509 -0.15807112 -0.39888352
000080 81 e4 a9 bd 03 94 90 3e 56 a0 e4 bd 88 72 f1 be
       -0.08295537 0.28237924 -0.11163394 -0.47157693
000090 49 f7 b4 3e 20 52 22 3c 14 72 71 be 8c 5f 31 be
       0.35344914 0.009907275 -0.23578674 -0.17321604
0000a0 cf 0c 4c be f5 7a 5c be 57 ba 04 be 2d ca 8e be
       -0.19926761 -0.2153128 -0.12961708 -0.27888623
0000b0 b5 cb 9d be 65 e6 40 3e cf 59 c3 3e a4 14 c7 3c
       -0.3081948 0.18837889 0.38154456 0.024301834
0000c0 59 45 07 3e 84 78 5f be 77 e6 2d be cd d4 fe bd
       0.13210048 -0.21823317 -0.16982447 -0.12442932
0000d0 be b4 47 3e 62 9c 21 be cf 60 e7 be 52 d6 2a be
       0.19502541 -0.15782312 -0.45191047 -0.16683319
0000e0 74 6d 18 be 4b b9 03 bf 26 6e 00 be 18 31 61 bd
       -0.14885503 -0.5145461 -0.12542018 -0.05497846
0000f0 a4 e8 8e bd e6 53 76 3d fa 9b 9f 3d 78 91 aa be
       -0.069779664 0.060138606 0.07793422 -0.3331411
000100 f7 3a fd bd ab 07 ea be 02 44 b3 be 0e 1d f3 bd
       -0.12364762 -0.45708975 -0.35012823 -0.11870776
000110 ee 0e 33 3e a2 39 16 3d de f2 8c 3e f9 4e 3e 3e
       0.17486164 0.036676057 0.27529043 0.18584813
000120 ab 23 7b be 8d 55 0e be cc 3c 99 bd 7f 2e b8 bc
       -0.24525325 -0.13899823 -0.07482299 -0.022483109
000130 04 98 2c 3d 47 75 d4 3d 52 55 b4 3e 42 97 99 3d
       0.04213716 0.103739314 0.35221344 0.07499553
000140 1c 25 dc 3d 7b ba 42 bf 4d c4 9b be ce 48 52 be
       0.107492656 -0.76065797 -0.30423203 -0.20535585
000150 a1 7a 82 be 1a b2 5b 3e 2d cb bd 3e 66 84 7e 3e
       -0.25484183 0.21454659 0.37069073 0.24855193
000160 b4 92 ab 3e b7 17 3a bd a5 0b 67 be 8a ea 96 be
       0.33510363 -0.045432772 -0.22563036 -0.29475814
000170 91 21 a8 be 2a 7e fa be a7 2c f8 bd 3b e2 1c be
       -0.3283811 -0.4892438 -0.12117892 -0.15320675
000180 e1 fb 72 3e 9e b8 75 3e 5f 4d 98 3d 84 15 12 be
       0.23728897 0.23996207 0.07436632 -0.1426602
000190 4a cc e3 3e 84 1b e1 3e b8 e7 a9 be f9 51 8b be
       0.44491798 0.43966305 -0.331846 -0.27210978
0001a0 82 1a 85 bd 1f 90 87 be 12 51 67 bd 7a 98 d0 3e
       -0.064991966 -0.26477143 -0.0564738 0.4074133
0001b0 ef c4 ab bd d7 8c ad be 64 8f 07 bf cd ca be 3c
       -0.083871715 -0.33896515 -0.5295317 0.023290062
0001c0 22 54 52 3e e5 1d 80 bd f3 6b 5b be 09 be 96 3d
       0.20539907 -0.06255702 -0.21427898 0.07360465
0001d0 71 f4 e7 3d 91 01 24 be c6 b5 5a be d3 78 a9 be
       0.113259204 -0.16016223 -0.21358404 -0.33099994
0001e0 c4 8f 84 bd d7 0a 9e 3d 73 29 cd bd 45 fd 0b be
       -0.064727336 0.07716911 -0.100176714 -0.13670833
0001f0 de 59 8a 3d 35 12 b6 3d 0d bb 71 3d 21 7f d5 3d
       0.06755422 0.088901915 0.059016276 0.104246385
000200 f8 75 05 be 40 c4 0b bb 1a b5 24 be e2 21 a7 be
       -0.13033283 -0.002132669 -0.1608471 -0.32643038
000210 ee 49 47 3e 14 64 e5 bd a4 3a a0 be 10 5d 11 3e
       0.19461796 -0.11200729 -0.3129474 0.14195657
000220 f8 20 2e 3d e3 14 20 bf 2c c8 6c 3d 76 c2 3c 3e
       0.04251191 -0.6253187 0.057808086 0.18433556
000230 5e ba a3 bd d8 b3 99 bd 17 2c 01 3e 68 0b dc 3e
       -0.07994531 -0.075050056 0.12614475 0.42977452
000240 0c 61 22 be 79 8c c2 be 9c c5 85 be d6 34 e7 bd
       -0.15857333 -0.37997797 -0.26127326 -0.112893745
000250 08 29 ab 3c 68 68 9e bb 68 e8 9e 3d 8a 12 06 3e
       0.020893589 -0.0048342235 0.07759172 0.1309301
000260 df 25 90 bc 51 b3 34 bd f7 6d b0 3e 8d 66 11 3e
       -0.017596183 -0.044116322 0.34458897 0.14199276
000270 54 92 b8 3e 35 ad 73 be 40 56 62 be 4b 74 1a 3e
       0.3604914 -0.23796542 -0.22103214 0.15083425
000280 2d 3d 48 bc a7 ee d4 be d3 fe 1e bd e7 40 99 bc
       -0.012221617 -0.41588327 -0.038817238 -0.018707706
000290 d9 39 a7 bd 01 7c 93 3e 18 6c 80 3e f4 88 68 3d
       -0.081653304 0.28805545 0.2508247 0.056771234
0002a0 12 6c c9 be 3e 07 58 be 2c 6b 3b be 36 b6 98 3d
       -0.39340264 -0.21096513 -0.18302602 0.07456629
0002b0 af b2 b1 3d 8c 4a 3e 3e de ea db 3d 68 a1 26 3e
       0.08676659 0.18583125 0.10738157 0.16272509
0002c0 5d a2 5b bb 19 fb d7 be 7e e3 9e be 47 28 04 bf
       -0.0033513524 -0.4218376 -0.31032938 -0.5162396
0002d0 8f 96 ee bd 32 aa 54 be 78 a0 19 3d cd 6e c0 be
       -0.116498105 -0.2076805 0.03750655 -0.37584534
0002e0 20 b7 85 bd b0 f9 5d bb 07 42 37 be 70 60 17 3e
       -0.06529069 -0.003387075 -0.17896281 0.14782882
0002f0 bf b2 58 3e 1a 94 a3 3e 14 f6 da bc 59 ba 57 bd
       0.21161936 0.3194893 -0.026728667 -0.05266795
000300 51 0d 5f 3d 43 43 c1 3d 71 a0 02 bf 9f 27 68 be
       0.05445606 0.09436657 -0.51026064 -0.22671364
000310 b5 10 99 bd ba 05 cc bd a6 73 f4 3d a1 a7 16 3e
       -0.0747389 -0.0996203 0.11936121 0.14712383
000320 09 3f 11 3e 10 fa a2 bd 8e 7e 3a 3d 07 d5 20 be
       0.14184202 -0.07957852 0.04553085 -0.15706263
000330 e2 d6 cb bd 11 3a 4f bd c4 cd 50 be f6 6c 45 be
       -0.09953095 -0.050592486 -0.20390993 -0.19279847
000340 61 96 ce bd 52 cc a1 be 8d c0 9e 3e 10 d1 b0 bd
       -0.10087276 -0.31601197 0.3100628 -0.086336255
000350 f5 98 aa 3e c3 e3 21 3e 98 78 ee 3e 98 ff 1a bd
       0.33319822 0.1580954 0.4657638 -0.03784141
000360 95 c1 0f 3e 9a 64 7c 3e df 3f 53 3e 19 43 9e be
       0.1403869 0.24647751 0.20629834 -0.30910566
000370 40 0a ea 3d 9f 73 15 3d dd e5 99 be e3 10 d4 be
       0.11427736 0.036487218 -0.30058184 -0.41419134
000380 0f bd c2 be d8 24 d4 3c 2a c4 24 3d 40 af aa 3e
       -0.38034865 0.025896475 0.04022614 0.3333683
000390 2e 10 0e be cc 11 3d 3d 3d 77 a6 3c f8 65 ad be
       -0.1387336 0.04615955 0.02032053 -0.33866858
0003a0 43 6e 05 bf 0e 11 28 bf fc 8d 1f be 7c 93 b8 bd
       -0.5212137 -0.65651023 -0.15581506 -0.090125054
0003b0 ca b9 db 3d 39 4a 08 be 21 ef 33 be 02 78 6d bd
       0.10728796 -0.13309564 -0.17571689 -0.057975776
0003c0 9b 67 0a 3d fd b2 a9 3d 63 12 90 3e d4 7c 9c 3d
       0.033790212 0.082860924 0.28139028 0.076409966
0003d0 bd 0f 01 3e 74 4a 89 3e f0 96 29 bf 78 c6 94 be
       0.1260366 0.26814616 -0.6624594 -0.2905767
0003e0 1a e1 b5 be 56 ae a1 3e b9 36 dd 3e 39 94 88 3e
       -0.355233 0.3157832 0.43205813 0.26675585
0003f0 77 eb be bd f7 6a 2d 3e 0e c6 97 3e 84 4a 0c be
       -0.09322255 0.16935335 0.2964329 -0.137003

conv2.bias f4 [16]
000000 99 23 bc 3b eb ef 52 be f3 87 f3 3c 78 81 52 bb
       0.0057415483 -0.20599334 0.029727912 -0.0032120626
000010 33 fb 95 bd 31 41 dd bd 0c d8 c2 3d a5 8e f3 bd
       -0.07323303 -0.1080345 0.09513864 -0.11892442
000020 0e db 42 be 3b 5c 7f be 8a 51 20 bd 08 b5 95 be
       -0.19028875 -0.24937527 -0.03914026 -0.29239678
000030 ea 03 5e be 8b 13 42 bd 05 51 3d 3d ea 49 8c bd
       -0.2168118 -0.04738192 0.046219844 -0.068500355

fc1.weight f4 [120, 400]
000000 7b f2 4d bd 18 64 f4 3d 0f f6 a5 3d 72 7d 29 3e
       -0.050280076 0.11933154 0.081035726 0.1655176
000010 16 f1 c0 3e 44 0f 81 bd 0b 0c 2d be a8 4f 07 bf
       0.37683934 -0.0630174 -0.16899125 -0.5285592
000020 bb aa 02 3e 1d e8 f6 3e e8 89 b1 3d 30 ad 96 be
       0.12760441 0.48223963 0.08668882 -0.29429007
000030 11 48 04 be 13 3e 41 3e 21 06 b1 3d 82 db 68 bd
       -0.12918116 0.18871336 0.08643747 -0.056849964
000040 2c eb 4b be 72 08 a8 3d 43 ac ce be 29 d3 c2 be
       -0.1991393 0.08204736 -0.403658 -0.38051727
000050 3a f9 df 3d 06 d4 ef bd 99 68 36 be 00 b9 85 3e
       0.10936208 -0.11710362 -0.17813338 0.26117706
000060 a3 2e 36 3e 3e 7e fd 3d cc 95 d4 3c 66 8d d4 bd
       0.17791228 0.123775944 0.025950335 -0.10378532
000070 95 bc f1 3c a3 5b 6c bd ab fd 8b be 01 35 30 be
       0.029508868 -0.05770458 -0.2734197 -0.1720772
000080 82 cb 9c bd 1d f1 8a 3e 5f e9 cd 3e 65 81 f9 bd
       -0.076560035 0.2713708 0.4021711 -0.12182883
000090 17 b5 9c bd 6f da 0b be ac 39 77 be 76 d5 e4 bd
       -0.07651728 -0.13657545 -0.24143094 -0.11173527
0000a0 68 de 4d 3e 6a 29 1c 3e 57 eb d4 bb 27 e8 d5 bd
       0.20104373 0.15250173 -0.0064977813 -0.1044467
0000b0 e4 97 9d bd 10 8c 86 bd c5 6a 81 3e ed 4c 48 3e
       -0.076949865 -0.065696836 0.2527677 0.19560595
0000c0 9e a8 29 3e 4f 16 86 3e f1 7b c8 3d ee e1 2a 3e
       0.16568229 0.26188895 0.09789265 0.16687748
0000d0 ff 0f 17 be 24 cb 89 be cc f7 a6 3c 3f 2a 80 be
       -0.14752196 -0.26912796 0.02038183 -0.2503223
0000e0 6d 14 07 be 51 91 96 be dc a9 86 be 4e a0 a4 bd
       -0.13191386 -0.29407743 -0.26301467 -0.08038388
0000f0 b1 7e 89 3e 54 a8 0e bd 9e ae 41 bd 10 c7 34 3e
       0.2685447 -0.0348285 -0.04728567 0.17654061
000100 05 e3 c6 3e 06 80 d1 3e d2 1c 3a 3e d3 57 20 bd
       0.38845077 0.40917987 0.18175057 -0.039146256
000110 c5 75 96 bc 22 c8 da bd 8a f7 4c 3d cc e2 47 3d
       -0.018366704 -0.106827036 0.05004076 0.048800275
000120 d3 55 c7 3d bf ba 5b be a1 70 0b bf 05 2b c7 bc
       0.097331665 -0.21457957 -0.54468733 -0.024312505
000130 03 5b e4 3c 25 fb a6 3e b8 7e 39 3e 71 e8 9d 3e
       0.027875429 0.32613483 0.18114746 0.308414
000140 57 a2 cb 3d 00 95 21 be 0f e7 4b be cf 27 c6 bd
       0.09943073 -0.15779495 -0.1991236 -0.09675562
000150 83 94 b7 3e 2e 44 a9 3a 20 d1 e0 3c 02 8c c1 3d
       0.35855493 0.0012913996 0.027443469 0.094505325
000160 40 54 2e 3e c9 f4 f0 bd d3 49 8f 3c 2e b7 ec bd
       0.17024326 -0.11765439 0.017491257 -0.11558376
000170 1a 5b bf 3c 12 ce e3 bd a2 d0 7f be e8 e3 0f 3e
       0.02335887 -0.11123289 -0.24981931 0.14051783
000180 b5 f6 b3 3d d6 24 bd 3d cf a9 5a 3e 81 f0 43 3d
       0.0878729 0.092355415 0.2135384 0.047836784
000190 1f 0f b8 3b 8b 51 0d 3e f6 61 09 3e b9 8e 4a 3d
       0.005617037 0.13800637 0.13416275 0.049452517
0001a0 a9 f5 0a 3e 1c 2f 30 3e 88 16 18 3d dc 9a d6 bd
       0.13570274 0.17205471 0.037130862 -0.10478756
0001b0 5b 8f 1e 3e 84 7d 9b 3e a3 89 05 3e fd 55 f2 3d
       0.15484373 0.30369198 0.13040785 0.11832807
0001c0 ff c8 1b be e2 56 0e 3e cf 7f a9 3e f2 2d e1 bd
       -0.15213393 0.1390033 0.33105323 -0.109950915
0001d0 0a 87 8d 3d 72 77 ab bd a2 28 e9 bd f6 4e da be
       0.06910522 -0.08372392 -0.11384703 -0.42638367
0001e0 25 68 b8 3d 52 9e 02 3e a3 05 10 3e 81 61 05 3e
       0.09004239 0.12755707 0.1406465 0.13025476
0001f0 6b 9b 67 be cd a4 c6 3c fe 15 90 bc ce 3c b1 3d
       -0.22617881 0.024248505 -0.017588612 0.08654176
000200 17 60 f3 3d df ab 84 3d 1c bd e0 3c 1a 4b 78 3d
       0.11883562 0.06478094 0.027433924 0.060618497
000210 3f 43 93 3d 87 e2 3a 3e c4 8f 1c 3d 43 ef 91 3d
       0.071905605 0.18250476 0.038223043 0.07125714
000220 ae aa 68 3d f3 7e 6f bc d1 bf 92 3c a9 c8 a0 3c
       0.056803398 -0.014617669 0.01791373 0.019626932
000230 78 35 e9 3a 88 f1 19 3e 7a 53 b8 3d e1 10 3b bd
       0.0017792424 0.15033543 0.09000297 -0.045670394
000240 23 8e a3 bd a8 ca 0e 3d 00 bd 18 3d 51 31 8a 3d
       -0.07986095 0.034861237 0.03728962 0.067476876
000250 40 f2 78 3d 76 42 11 3d 78 89 de 3d f9 06 8a 3e
       0.060777903 0.035463773 0.10866064 0.26958445
000260 20 c8 30 bd 13 02 70 bd 4d e9 a1 bc c5 37 3a 3e
       -0.043159604 -0.058595728 -0.019764567 0.18185337
000270 c6 90 44 3e 95 fe 8a bd ce 2e 06 be 60 73 b1 3c
       0.19195852 -0.06786839 -0.13103792 0.02166146
000280 a7 d7 a4 3d ff 31 72 3e ac e6 80 bd c6 92 34 3e
       0.08048945 0.23651884 -0.06293997 0.17634115
000290 36 ac ae 3e 4d dc 06 bc ef 9b 36 be 82 ee 0d be
       0.34115762 -0.008231235 -0.17832921 -0.13860515
0002a0 47 23 e4 bd 9a 50 f4 bd f4 f6 4f 3d 24 94 b0 3a
       -0.11139541 -0.11929436 0.050772622 0.0013471884
0002b0 21 40 92 bc 2e 6b 29 be be b1 85 be e3 b6 04 3a
       -0.017852845 -0.16544792 -0.2611217 0.00050626526
0002c0 ec 31 a8 3e 64 de 23 3e 69 9d 16 be 6a ca 54 3d
       0.32850587 0.16002804 -0.14708485 0.05195085
0002d0 a1 61 e6 3c 58 7e d3 3c 28 56 4f bc 83 d9 70 bd
       0.028122725 0.025817081 -0.012654819 -0.058801185
0002e0 45 55 02 be 5f 56 d5 bd b0 d4 b3 be fb c6 9f bd
       -0.1272784 -0.104168646 -0.35123205 -0.078016244
0002f0 36 d2 05 3e 23 d5 97 3b 5f 0f 7a be 7f 1a 97 be
       0.1306847 0.004633562 -0.24419926 -0.29512402
000300 9b bc 1c be 5f be 56 be a9 e6 cb 3d 70 66 63 be
       -0.15306322 -0.20971058 0.09956104 -0.22207046
000310 31 3e 91 be fd 31 d7 bd 7c 84 fe bc cf 95 bc 3d
       -0.2836776 -0.105075814 -0.031069033 0.09208261
000320 39 dd aa 3d 60 06 70 3d f3 dc 8e 3d ea e4 05 3e
       0.08342976 0.05859983 0.069757365 0.13075605
000330 10 fe da 3d 4c a5 bf 3d 0f 80 06 3d 0c 03 12 bd
       0.1069299 0.093577 0.03283697 -0.035647437
000340 60 9e ff 3d 80 0f a3 3e de 59 fa 3d cb ab 92 3d
       0.124813795 0.31847763 0.12224172 0.07161673
000350 a8 6a 2e 3e ca d0 80 3e 0c 01 37 be f2 73 7c 3c
       0.17032874 0.25159293 -0.17871493 0.015408503
000360 f0 0c 59 bd 03 a2 25 bd 2f 50 ce bd 44 45 28 be
       -0.052990854 -0.04043771 -0.100738876 -0.16432673
000370 c9 c8 cb bc 9b 69 1f 3c f5 27 65 3d ea 3f 33 3a
       -0.024876015 0.009729768 0.05594631 0.0006837832
000380 87 c4 09 be 6d 42 92 3e b6 fb 8e 3c 5a 11 9a bd
       -0.13453875 0.28566304 0.01745401 -0.07522841
000390 54 cc 12 3e f7 0b 30 3d c1 88 be bb 30 71 dd bd
       0.14335757 0.04298016 -0.005814642 -0.108126044
0003a0 29 fd d5 bd f4 fb 0d 3d 59 48 17 bd 50 6c a9 bd
       -0.10448677 0.03466411 -0.03693423 -0.08272612
0003b0 a8 92 ae bc a5 62 70 3e f9 33 ed 3d da b1 25 be
       -0.021310166 0.2347513 0.115821786 -0.16181126
0003c0 e9 56 05 3d 99 ad 38 be d3 a1 11 3e 08 90 b8 bc
       0.032553587 -0.18034972 0.14221887 -0.022529617
0003d0 d7 53 b4 3d f6 f5 99 bd e2 11 ce 3d 5c 59 67 3e
       0.08805054 -0.075176165 0.100620046 0.22592682
0003e0 37 57 d2 3c 89 98 40 3e 39 1b 53 3d 1d b5 6b 3e
       0.025676353 0.18808188 0.051539633 0.23018308
0003f0 b0 2c d9 3c b0 87 19 be 89 4c b1 bc 78 6c 0f be
       0.026510566 -0.14993167 -0.02164294 -0.14006221

fc1.bias f4 [120]
000000 b1 d2 11 bb 9b ee 91 3d 80 8d c1 bc 80 62 72 bd
       -0.0022250826 0.071255885 -0.023627043 -0.05917597
000010 71 9f c3 bd ca a2 72 3c c5 1c b5 3d 72 bf 07 be
       -0.095518954 0.01480932 0.08843378 -0.13256624
000020 ac bf b9 bc 32 1b ed 3d 66 eb e5 bd 6a 99 1f 3c
       -0.022674404 0.11577453 -0.11226539 0.009741167
000030 b5 e2 e3 bd ad e9 9d bb cd cb 8f 3d 18 ec a1 39
       -0.11127225 -0.004819116 0.07021294 0.00030884217
000040 91 cf c8 bc 40 a2 ca bc 0a ce 21 3d 72 84 01 bd
       -0.024513038 -0.02473557 0.039503135 -0.03162045
000050 a3 87 91 bd 16 24 11 be 06 16 43 bd d8 3c ca bd
       -0.07105949 -0.14173922 -0.047628425 -0.09874886
000060 b0 d6 55 bd f3 98 43 3e 96 d3 7b bc ec b4 4e bd
       -0.052206695 0.19101314 -0.01537027 -0.05046551
000070 01 d0 3e 3d 69 cd fc bc 70 9c 83 bc 5f 52 fa bd
       0.046585087 -0.030859666 -0.016065806 -0.12222742
000080 0a 0e 00 3d ca fc 17 bd fd ef 46 bd d9 65 0b bd
       0.03126339 -0.037106313 -0.048568714 -0.034032676
000090 ca 4b 15 bd 1e 75 91 bd 94 f2 26 3d 34 5e 90 bb
       -0.03644923 -0.071024165 0.040758684 -0.004405761
0000a0 f6 b1 92 3b c0 30 1b bd ce ab f4 3d 3c 35 cd bc
       0.004476781 -0.03788829 0.11946832 -0.025049798
0000b0 cd 0d 61 3d 1f 51 ad bc 75 d5 9d bc 37 54 12 3d
       0.054944802 -0.021156846 -0.019266823 0.035724845
0000c0 ef e6 7c bd 77 d9 10 bc 4b 31 28 bd 84 f0 3c bd
       -0.061743673 -0.00884091 -0.041062634 -0.04612781
0000d0 f0 a9 7c 3d b4 a7 95 bc 32 7e c3 3b e0 20 83 bd
       0.061685503 -0.018268444 0.0059659714 -0.06402755
0000e0 60 ec e5 bc ef 71 34 bd 2f f5 31 be 7c ab 08 be
       -0.028066814 -0.044053968 -0.17378686 -0.13346666
0000f0 2f 8e 3f bd c9 76 88 3c 81 7b 97 3b 2f 01 6d 3d
       -0.046766456 0.016658204 0.004622877 0.057862457
000100 bf 6d bc bc 5c 5d 5a bd f3 c1 6c bd fe 40 0a be
       -0.02300155 -0.05331169 -0.057802152 -0.13501355
000110 a4 34 04 3d e0 e1 f3 3c 6f 86 a0 3c ea ff 23 be
       0.032276765 0.029770792 0.019595353 -0.16015592
000120 65 ab 03 be 8a 94 dc 3c 7d 6d ef bd 5a 5e d3 3d
       -0.1285835 0.026926298 -0.11690805 0.103207305
000130 58 72 a6 bc 7e b4 b2 bd 46 bb 9f bc f9 d6 cf 3b
       -0.020318195 -0.087258324 -0.019498479 0.0063427654
000140 4e a2 06 3d d1 2e a0 bc 7e a9 82 bd 47 0b c2 3c
       0.03286963 -0.019553574 -0.06379984 0.023687018
000150 b8 7c 27 bd 27 35 c2 bc be 89 91 bd 1d 5e 21 3d
       -0.040890425 -0.023706986 -0.0710635 0.039396394
000160 b8 bd 60 3b e4 f7 0f 3d e5 e6 57 bd 1f 08 d9 ba
       0.0034292769 0.035148516 -0.052710433 -0.0016558206
000170 ae bb 69 bc 5a 62 9d bd 3b 2b 15 3e f1 db 51 bd
       -0.014265938 -0.07684775 0.14567272 -0.051235143
000180 6b 2d a1 bc 21 11 88 3d 74 cf ee bd cd 03 98 bd
       -0.019674977 0.06643892 -0.11660662 -0.074226
000190 8a 9d 03 be d4 e0 23 be b2 0b 81 3d 59 aa 05 3d
       -0.12853065 -0.16003734 0.06301059 0.03263316
0001a0 d5 b6 a9 3c 37 4e 74 bb 28 3e ba bc 90 0f 2e be
       0.020717064 -0.0037278065 -0.022734717 -0.16998124
0001b0 51 67 bb bd 3a 93 d0 bd 27 1a ef 3d af 90 35 bd
       -0.091505654 -0.10184331 0.1167491 -0.044327434
0001c0 3a 76 0e be 51 89 fc bd 4d 2a ee 3c 86 95 32 bd
       -0.13912287 -0.123308785 0.029072905 -0.043599628
0001d0 14 4e 61 bc 05 e4 a2 bd 3c 32 43 bd 40 36 36 bd
       -0.013751525 -0.079536475 -0.04765533 -0.04448533

fc2.weight f4 [84, 120]
000000 db 4e 4f be e3 90 df bd 1c ef 9a 3c 1d e0 73 3d
       -0.20244925 -0.10916307 0.018912844 0.059539903
000010 1b 26 a3 bc f9 ad d2 3d 42 7c e1 bd 7d b0 b9 3d
       -0.019915631 0.10287089 -0.110100284 0.090668656
000020 a2 5c 1f bd 03 d2 3b bc 21 d6 62 3d bd 81 62 bd
       -0.0389067 -0.011463645 0.05537999 -0.05529951
000030 39 59 03 3e 40 f9 78 be 83 13 03 be ae f6 cd 3d
       0.12827004 -0.24313831 -0.12800412 0.10056816
000040 06 48 24 3d 99 c3 f9 bd b9 09 30 bd 91 36 20 bb
       0.04010775 -0.121955104 -0.042978022 -0.0024446587
000050 11 17 0e be 43 c1 79 3e 73 ea 17 bd 85 e8 47 3e
       -0.13875987 0.2439013 -0.037088823 0.19522293
000060 43 e7 8f bd 8c 90 93 bd 89 b0 b1 bd 53 35 5c be
       -0.070265315 -0.072053045 -0.086762495 -0.21504717
000070 f8 64 7e be 21 53 48 3e 7c 9c ed bd 88 5d 74 3e
       -0.24843204 0.19562961 -0.11602113 0.23863804
000080 90 9a 5a 3e aa cb a6 3a 59 4f 36 bd b8 bd 7f 3d
       0.21348023 0.0012725492 -0.044509266 0.06243679
000090 b2 0f 67 be cc ad 99 3d 0a 91 1a 3e b4 e4 6d bc
       -0.22564581 0.07503852 0.1509439 -0.014519859
0000a0 8c 73 d2 3d 5a 97 d6 3c 00 77 db 3d b0 ce 5d bd
       0.10275945 0.026195217 0.10716057 -0.05415219
0000b0 9c 4d 55 3e d8 1a 37 3d d8 67 e6 bd a9 40 c7 bc
       0.20830387 0.044703335 -0.112502754 -0.024322825
0000c0 35 f4 c1 ba 4e b9 91 bd 54 8e 3a 3d 09 19 0a bd
       -0.0014797511 -0.07115422 0.04554589 -0.03371528
0000d0 0f af 25 be 96 81 75 be a2 7d b3 3e b6 50 68 3d
       -0.16180061 -0.23975214 0.35056788 0.056717597
0000e0 d4 3e 21 bd 7b 18 56 bd 82 a9 a2 3d a1 0c 60 3d
       -0.03936656 -0.05226944 0.07942487 0.054699544
0000f0 b2 b1 b7 ba 07 3b 56 be 1d 00 73 3d 40 99 4c 3e
       -0.0014014749 -0.20920955 0.05932628 0.19980335
000100 d2 d0 ac bd 9a ae 6c be f9 f5 dd 3b f0 af b9 3c
       -0.08438267 -0.2311348 0.006773707 0.022666901
000110 d5 06 5b bb ee a9 73 3e 3d 1d 5a bd 7c 23 b7 bd
       -0.003342082 0.23795292 -0.05325054 -0.08942315
000120 c2 27 40 bd 8f 49 89 be 09 44 74 3e b4 0c 76 be
       -0.046912916 -0.26813933 0.23854078 -0.24028283
000130 7d 4d 2f bd 64 33 52 3e 17 e0 b5 bd a0 03 75 3c
       -0.042798508 0.20527416 -0.08880632 0.014954478
000140 4f e3 c7 bd 15 d1 01 3e 8a 69 98 bc b2 80 46 3c
       -0.097601525 0.12677415 -0.018605012 0.012115644
000150 07 6c 7f 3e 4a 32 65 3d 06 a1 a0 3d e8 e8 3e 3c
       0.24943553 0.055956163 0.07843213 0.011652209
000160 69 01 06 3d 8e 2b 06 bc 2d 2c 09 be 92 70 a5 be
       0.03271619 -0.008189095 -0.13395758 -0.32312447
000170 f8 9a 79 bd d1 14 84 3c 1d d4 75 3e 80 f9 f1 3b
       -0.060938805 0.016123207 0.24006696 0.007384479
000180 d5 97 3d 3e c8 26 90 bd 27 d5 2b be 9b e9 cc 3d
       0.1851495 -0.07038647 -0.1678053 0.10005494
000190 b0 4a 19 be 5d ff 87 3e ce c0 30 be 0d 72 7b bd
       -0.14969897 0.26562014 -0.17261049 -0.061388064
0001a0 76 3f 64 3b df 35 cc 3b 73 68 a4 3e 5c 55 c9 3d
       0.0034827865 0.006232008 0.32110938 0.09830734
0001b0 0e 11 ee 3b 98 d1 ee bd 33 2d d1 bc e4 69 84 bc
       0.0072652167 -0.116610706 -0.025534248 -0.016163774
0001c0 da 30 7c ba 46 d9 6f be 2c 1a d2 bd 4f 22 8f bb
       -0.00096203166 -0.23422727 -0.10258898 -0.0043681036
0001d0 49 46 d8 bc d2 9b 1c 3e ca dd 96 3d 2c 58 8d 3e
       -0.026400702 0.15293816 0.07366522 0.27606332
0001e0 88 cc ac 3e 4c fc d7 be 85 db 4e be 7f 75 31 bd
       0.33749795 -0.42184675 -0.20200928 -0.043324944
0001f0 28 28 5c 3d e0 04 71 3d 97 9b 75 be ef dc 3e be
       0.053749233 0.05884254 -0.23985134 -0.18638967
000200 85 9b 1f 3c 4b 80 b9 3d 90 84 03 3d b5 3f db be
       0.009741669 0.09057673 0.032108843 -0.42822042
000210 26 42 5a 3e 18 e4 f2 3d a4 f3 7d bd f6 48 b6 be
       0.21314296 0.11859912 -0.061999932 -0.3560254
000220 7a fb b9 3c 06 ba 2e 3d e8 41 25 3e 61 81 ee bc
       0.022702921 0.042657875 0.16138422 -0.029114427
000230 11 37 54 3e a1 62 d9 3d 24 74 c4 3d 27 a4 e4 3d
       0.20724131 0.10614515 0.095924646 0.11164122
000240 82 e8 fc b7 17 86 48 be 95 7a c0 3d 8b e8 34 3c
       -3.014901e-05 -0.19582401 0.09398381 0.011041771
000250 89 f3 ab be 12 7a 97 3d 27 1a ab bd fb 5e c0 3c
       -0.3358424 0.0739633 -0.083545975 0.02348279
000260 7e d1 a1 bd 35 39 2c bd 0d cd ac 3d 26 b3 00 bd
       -0.079012856 -0.042046744 0.08437548 -0.03142085
000270 7e c3 c9 bd 77 02 e0 bc c5 d9 b8 be b7 dc 0a bd
       -0.0985174 -0.027344925 -0.36103645 -0.033901896
000280 d8 e3 22 bd c9 83 ea bc d5 75 52 be f0 19 6f 3d
       -0.03976807 -0.028627293 -0.20552762 0.058374345
000290 2c f6 fc bd f2 c9 6b bd b9 e8 91 3d b2 4a 7c bc
       -0.12351641 -0.057565637 0.071244664 -0.015398668
0002a0 e5 db 1a 3d a6 00 1e 3e 18 8a 85 3d e3 16 5c be
       0.037807364 0.15429935 0.0652048 -0.21493106
0002b0 c2 6c 62 3e 16 e8 0b bd b0 73 50 be 3f b2 96 3e
       0.221118 -0.03415688 -0.20356631 0.29432866
0002c0 9e fb 11 3d aa 23 93 3e 18 b5 95 3d 42 51 4f be
       0.03564035 0.28738147 0.073099315 -0.20245841
0002d0 bf a7 ef 3d 87 13 87 3e 4b b9 e9 bc 56 c3 db 3d
       0.11701917 0.26382086 -0.028530737 0.10730617
0002e0 67 1e 17 be ff ff 93 bd fd dd 84 3d 49 5a ea 3b
       -0.14757691 -0.07226562 0.064876534 0.007151876
0002f0 5e 62 95 be e5 17 84 3d 8e 2c 10 3d e5 8a 17 3e
       -0.2917661 0.0644987 0.03519874 0.14799078
000300 0d 84 e1 bd b3 76 c3 3c 61 a6 c5 bd 73 14 6a bc
       -0.11011515 0.023860311 -0.09650875 -0.014287102
000310 7f 97 b7 3d 06 c3 7a be 96 90 c6 3b 33 87 52 be
       0.089644425 -0.24488458 0.0060597165 -0.20559387
000320 87 72 91 3d c3 75 bf 3d 98 09 27 bd 53 d8 96 3d
       0.071019225 0.09348633 -0.040780634 0.07365479
000330 f6 3a c3 3c 72 a9 00 be d6 9c dc 3e d0 36 48 be
       0.023831826 -0.12564638 0.43088406 -0.1955216
000340 80 03 b0 3c d3 a2 54 3d 43 ed 59 bd ff 75 90 3e
       0.021486044 0.051913094 -0.053204786 0.28215024
000350 94 46 78 bd 88 c7 e9 bd d6 65 83 be 92 d6 93 3d
       -0.060614184 -0.11415011 -0.25663632 0.072186604
000360 d9 2b f8 3d 59 d6 8e be 64 76 1e 3e 9e bc 8c bd
       0.12117738 -0.2789791 0.1547485 -0.068719134
000370 9c e2 ce 3d 84 ba f6 3d 9e b2 74 be f7 40 3d bd
       0.10101816 0.12047294 -0.23896262 -0.046204533
000380 82 6f 8c 3b 3d f7 33 bd 58 83 2a be db c0 0d 3d
       0.0042857537 -0.043936957 -0.16651666 0.03460775
000390 ec 0d b8 3c 46 66 5a 3d 88 f0 d6 be a8 b3 88 3d
       0.022467576 0.05332019 -0.41980386 0.06674892
0003a0 71 8f e3 bc 6d 19 03 3e 8b b9 73 bd 0a fe e1 3c
       -0.02777836 0.12802668 -0.05950312 0.027586956
0003b0 ac 7e 6f 3d 19 6e 22 bd da c3 13 3e 84 bc 32 be
       0.058470413 -0.03965578 0.1443018 -0.17454726
0003c0 58 ad e4 3d f7 b6 60 be a9 b7 f8 bd e3 1b c6 3c
       0.11165875 -0.21944796 -0.121444054 0.02418322
0003d0 1f df 78 bd 62 7e 88 3d 5f c1 c3 3c 8c d4 72 be
       -0.06075966 0.066647306 0.023895917 -0.23713893
0003e0 aa 61 22 bd ec e8 fe 3d 92 90 d2 be f5 3d 28 be
       -0.03964392 0.1244677 -0.41125923 -0.16429885
0003f0 4f 81 89 3d 8f 98 e3 3b 92 93 30 3e 94 29 6c be
       0.06714117 0.0069456766 0.17243794 -0.23062736

fc2.bias f4 [84]
000000 99 fc b7 bd d2 be 50 3e 38 67 2e 3c 2f a8 a1 3d
       -0.08983726 0.20385292 0.010644726 0.078934066
000010 dd 9a b0 bd c1 a4 9e bc 30 91 df bd 79 36 46 3e
       -0.08623288 -0.01936567 -0.10916364 0.19356717
000020 6e de 17 3e 34 b4 cf bb c4 9b 06 3d 6b 8f cd 3d
       0.14830944 -0.0063386206 0.032863393 0.100371204
000030 d0 2e a3 3d 6b 2b 39 3e dd 73 8a 3d d3 ca ba 3d
       0.07967913 0.18082969 0.067603804 0.09120717
000040 1d ad b1 3d 5a fe 3a 3b 56 06 01 be e7 99 6d 3c
       0.08675597 0.0028532953 -0.12600073 0.014502025
000050 f0 41 0d 3d 5f 65 d7 bd 95 6c 1b be 3c c6 35 3d
       0.03448671 -0.10517382 -0.1517814 0.044378504
000060 67 5c 22 be 32 e3 96 bd 67 36 15 3e 13 91 94 3e
       -0.15855561 -0.07367553 0.14571534 0.29016933
000070 62 09 13 bc cb 60 88 be 37 d5 51 3e 5e 14 14 3e
       -0.008974405 -0.26636347 0.20491491 0.14460894
000080 4c 99 c9 3d 6b 8a 63 3d 13 8f 09 3e c4 3f 4b 3d
       0.09843692 0.055551928 0.13433485 0.04962136
000090 b4 1e 15 be 8b 83 5a 3c e4 06 1c be 27 8b 62 be
       -0.14562494 0.013337026 -0.15237004 -0.22123395
0000a0 f0 7b f3 bc 8c 88 cd 3c 0c a8 cb 3d 99 a8 6e bd
       -0.029722184 0.025089525 0.09944162 -0.058266256
0000b0 f2 dc 6a 3d 5c 55 59 3e 4c 63 e7 ba 14 0f ea 3d
       0.057339616 0.21223968 -0.0017653494 0.11428657
0000c0 c3 f1 5d 3b d7 f1 2e bb a5 7c 3d be 08 59 4b 3e
       0.0033866025 -0.002669444 -0.1850458 0.19858181
0000d0 b7 ef 12 be b9 d1 0f bc 37 22 98 3e 15 3f 35 bd
       -0.14349256 -0.008778029 0.29713604 -0.044249613
0000e0 c0 69 42 be 06 07 8c bc b9 80 82 be 1b a4 0d be
       -0.18985653 -0.017093193 -0.25488833 -0.13832133
0000f0 24 e4 b7 bd b2 74 14 be 2a e9 9e bc dc a8 fb bd
       -0.08979061 -0.1449764 -0.01939829 -0.12288067
000100 9c 38 42 be 09 a0 df bd f0 e5 56 bd 32 89 35 be
       -0.18966907 -0.10919196 -0.05246538 -0.17728117
000110 70 9a 10 3c 36 6b 7a 3d fb a1 43 be 82 db 72 3e
       0.008825883 0.0611374 -0.1910476 0.23716548
000120 58 59 00 3e ec 98 12 3d 94 49 08 3e 05 0d 5a 3d
       0.12534082 0.03579037 0.13309318 0.053235073
000130 b4 ab b3 3d f7 9d 4d bd 89 20 42 3d ab 6c cc bd
       0.08772984 -0.050199475 0.04739431 -0.09981664
000140 52 48 16 be c1 5b 87 bd 1a 2f a5 3d ae 2d a4 3a
       -0.14676026 -0.066092975 0.080656245 0.0012525821

fc3.weight f4 [10, 84]
000000 33 e6 e3 3d f2 11 a6 be 81 db d8 3d 46 13 ec be
       0.111278914 -0.32435566 0.10588742 -0.46108454
000010 ed 6f f9 3d aa eb 96 be 14 1f e2 be 0c 3f 11 be
       0.12179551 -0.29476672 -0.44164336 -0.14184207
000020 a9 8f 14 bf 04 94 56 3e fc 27 9f be ff f3 6c 3d
       -0.5803171 0.20954901 -0.31085193 0.05784988
000030 dc 76 7e be ce cd f9 3d 0c 09 7b be b7 75 b0 be
       -0.24850029 0.12197457 -0.2451517 -0.3446481
000040 11 28 2e 3c d3 c5 15 be 28 5b 2d bd 75 6b e9 be
       0.01062967 -0.14626245 -0.04232326 -0.45589796
000050 58 e7 21 bf e7 47 93 be ac ea 61 3d 7d 5b cd 3d
       -0.6324363 -0.28765795 0.05515544 0.10027216
000060 33 e2 12 bf fc 14 10 3d f4 fc e4 be a2 f3 20 be
       -0.573764 0.035176262 -0.44724238 -0.15717939
000070 e2 4d af 3d d8 48 16 3d 7a fc 94 3d c7 2e 48 3e
       0.08559777 0.036690563 0.072747186 0.19549094
000080 06 d9 21 3e c5 7c 9f be 80 09 a6 be 33 8d 7a 3d
       0.15805444 -0.3114988 -0.32429123 0.061169814
000090 dd 9f 9f 3d 70 ab 3f 3e 97 82 e3 be 98 f4 37 be
       0.077941634 0.18717742 -0.4443557 -0.17964399
0000a0 b4 62 43 3c b2 11 96 3d 4e 6a 9a 3e ae 4d 2f be
       0.011925388 0.07327594 0.3015923 -0.17119476
0000b0 f1 b9 83 be fa 47 65 bd 56 37 cf bd 63 eb 82 be
       -0.257278 -0.055976845 -0.10117976 -0.2557021
0000c0 7d 86 f3 be b4 ab a7 be e5 79 94 3d 78 f7 81 3d
       -0.47563544 -0.32748187 0.07249812 0.06346029
0000d0 06 51 5c 3e 72 e9 ec 3c 36 73 90 be 04 c8 82 be
       0.21515283 0.02891991 -0.282129 -0.25543225
0000e0 b8 6f 74 3c c2 c4 a2 bd 9e 37 04 bc a4 0e 00 bf
       0.014919214 -0.07947685 -0.008069901 -0.5002234
0000f0 99 f6 86 be 61 46 cc 3d 67 15 2b be f7 ad 00 bf
       -0.26360014 0.09974361 -0.16707383 -0.5026545
000100 fe 0d c8 bd 4c 6f 15 3e e0 8c 4a be d5 12 1d 3e
       -0.09768294 0.14593238 -0.19780302 0.15339215
000110 8d 6e c9 be ad a4 9c be b2 d3 0e 3e ac 04 6a be
       -0.39342156 -0.30594388 0.13947943 -0.22853345
000120 e8 94 34 bd c6 95 e0 3d 8f 6f d8 be e6 d6 da bd
       -0.04408732 0.10966067 -0.42272612 -0.1068552
000130 84 b1 02 be fa e7 72 3d a7 37 0c 3e 17 69 9c be
       -0.1276303 0.05930326 0.13693105 -0.30548927
000140 bf 95 01 3e b1 77 c6 3d d6 87 32 3e bc 10 d1 be
       0.1265478 0.09690798 0.1743463 -0.4083308
000150 c1 6c f2 3d 0e 73 be bd e4 9f 5c be 68 42 52 3d
       0.118371494 -0.09299289 -0.21545368 0.05133286
000160 a8 2d 95 be 38 33 50 3e 48 8e cd 3d 3d 65 9c be
       -0.29136395 0.20332038 0.100369036 -0.3054599
000170 2b bf e5 3d 27 e9 58 3e d3 d9 9f be 53 61 53 be
       0.11218103 0.2118269 -0.31220874 -0.20642595
000180 bf 86 fb bc 10 fa f2 bd ba 28 20 3d 04 cf 91 be
       -0.0307039 -0.11864102 0.03910134 -0.28478253
000190 2f f5 15 be 96 24 8c be 83 a7 4c bd 16 f4 19 3e
       -0.14644311 -0.27371663 -0.04996444 0.15034518
0001a0 a4 7a 2b 3e e4 f3 12 3e ce 21 d1 3d 54 33 e8 be
       0.16746002 0.1435085 0.10211526 -0.4535166
0001b0 60 3d 0f bf fe c9 c1 be 66 ac bd 3d a2 00 be 3d
       -0.55953026 -0.3784942 0.09261398 0.092774644
0001c0 19 18 90 bd a0 d9 c8 be 13 d7 b0 be 42 3d 9f be
       -0.07035846 -0.39228535 -0.3453909 -0.31101424
0001d0 93 f9 f8 3c 0b 99 cb be 2c c7 54 3d 2e 91 b5 3d
       0.030392444 -0.397652 0.051947758 0.088655815
0001e0 19 26 b7 3d 0c a9 2e 3d 42 82 00 be 7b 9b 67 bd
       0.089428134 0.042641684 -0.1254969 -0.056544762
0001f0 ce 89 97 be e8 ba 83 be 5f 80 44 3d d1 60 05 3e
       -0.29597324 -0.25728536 0.047973987 0.13025214
000200 3f a2 4a be 1f 9d d3 3d 92 6b 48 bc 21 ad 18 3e
       -0.19788454 0.10332703 -0.012232678 0.14909793
000210 89 51 73 ba d0 d9 05 3e cd 27 11 bf c5 25 18 3e
       -0.0009281864 0.1307137 -0.56701356 0.14858158
000220 10 50 3e bf d9 e3 10 bf ab d8 eb be e2 d3 93 3c
       -0.74340916 -0.5659767 -0.46063742 0.01804537
000230 05 d4 3e bf 9b 98 dd be a4 3b c5 be cb ff 0f be
       -0.74542266 -0.4328049 -0.38522065 -0.14062421
000240 95 ab b6 bd e1 d2 8c 3d a8 82 57 be e7 6c 70 bd
       -0.089194454 0.068761595 -0.21045935 -0.058697607
000250 0a be 63 be 1c fd 73 3d 50 cb 89 3d 6d 80 8e be
       -0.22240463 0.059567556 0.06728232 -0.27832356
000260 de 41 92 3d 5c 07 52 3d 15 b9 84 be 24 ce 62 3d
       0.071414694 0.05127655 -0.25922456 0.055372372
000270 6c 51 f2 3d 52 91 ca 3d 47 18 91 be ac bf 89 be
       0.11831936 0.09890999 -0.28338835 -0.26904047
000280 ed 1e 08 be 6e 7e fb be e1 5c 91 be 92 a0 15 be
       -0.13293047 -0.49119896 -0.28391173 -0.14612034
000290 b5 69 ba be 92 5e c3 be c5 ab d0 bd a2 f0 5e be
       -0.36408773 -0.3815809 -0.101890124 -0.21771482
0002a0 0d fc 14 3e fc dc 0a 3e ad ae 96 be 98 1e 4f be
       0.14549275 0.13560861 -0.29430142 -0.20226514
0002b0 cb 7e 8c 3d dc a0 85 3d 0e d6 dd bd 13 3b 8f be
       0.06860121 0.06524822 -0.10831843 -0.27974758
0002c0 56 1e af be c6 66 f3 be 82 2d 0d be 06 d0 93 be
       -0.34202832 -0.47539347 -0.13786891 -0.28869647
0002d0 e5 ad 41 3e 8a 69 e7 be 11 29 79 be 0e 5b 9d bd
       0.18913992 -0.45197707 -0.24332072 -0.07683383
0002e0 18 47 a3 be eb 70 18 bf f4 d4 1c bc 1d 59 5a 3e
       -0.31890178 -0.595473 -0.009572256 0.21323057
0002f0 56 4c 9e be 47 94 3e 3e e1 53 d1 be e4 e0 b0 bd
       -0.30917615 0.18611251 -0.40884307 -0.086366445
000300 2e 5e 21 bf 86 31 58 3e ad f0 58 3d 5f 0c d8 be
       -0.6303433 0.21112642 0.0529639 -0.42196938
000310 cb a5 ae 3d b6 5c ba bd a0 db 9f 3c 55 5a fa 3d
       0.08527716 -0.090997145 0.019513905 0.12224261
000320 a7 ea 3c 3d e0 de a4 be ac 09 01 3d c3 b2 bf bd
       0.04612222 -0.3220129 0.031503364 -0.09360268
000330 94 0b 9a be 37 71 4f 3e 1f 91 ab bc a4 1a 03 bc
       -0.30086958 0.20258032 -0.020943223 -0.008001957
000340 eb 56 ac be 9e 82 21 3d 4a 6d a8 be 9b 8e a7 be
       -0.33660063 0.039431207 -0.3289588 -0.32725987
000350 1a c5 2a be 3e fd 35 be b6 a6 e3 3c 31 1f a4 3d
       -0.16676751 -0.17772385 0.027789455 0.08013762
000360 05 f1 c0 be 34 46 e9 3d 55 2f 17 be 64 2d e9 3d
       -0.37683883 0.11390343 -0.1476415 0.11385611
000370 bb c1 aa be de 4a da be e9 3c b4 bd 37 66 3a bd
       -0.3335093 -0.42635244 -0.0880068 -0.045507636
000380 17 51 2c be d5 5d e7 3b 99 e9 a6 3c 98 67 6c be
       -0.16827808 0.007060746 0.02037506 -0.23086393
000390 67 8c e0 bd dc 46 75 be ba 39 3a be 22 b3 0f 3e
       -0.109642796 -0.23952812 -0.18186083 0.14033177
0003a0 55 f5 a9 be 71 1c 6c be b2 cd 3e be 52 01 93 be
       -0.33194986 -0.23057725 -0.18633154 -0.28711945
0003b0 84 c8 9f 3d 4c a2 91 3d cc 69 df 3d e3 e4 b8 bd
       0.07801917 0.07111034 0.10908851 -0.09028032
0003c0 80 2e cf be 35 54 00 3d 6b a7 1f be f7 69 3c 3e
       -0.40465164 0.031330306 -0.15591209 0.18399797
0003d0 fe 7d 0a 3e 85 0d 29 be 7f e3 ac 3d 00 63 65 be
       0.13524625 -0.16509064 0.08441829 -0.22401047
0003e0 91 6b be 3a 8d b0 1c 3d 18 e8 e0 3c 51 bb b1 3d
       0.0014527907 0.03825431 0.02745442 0.08678306
0003f0 67 39 93 bd 99 6e 68 3e 75 ca e8 be fa 9f 28 bd
       -0.07188683 0.2269844 -0.45466962 -0.04116819

fc3.bias f4 [10]
000000 b5 2a 7f 3c e2 95 25 bd 07 68 88 3b cd c7 10 3d
       0.015574147 -0.040426143 0.0041627917 0.035346795
000010 23 c0 ad bd f6 33 2a be da 67 cf bd d5 c0 4f bd
       -0.08483913 -0.16621384 -0.1012723 -0.05072101
000020 31 d9 99 3e 5f 7c 9a bd
       0.30048516 -0.07543253
